model/keypoint_classifier/keypoint_classifier.tflite (tflite, 6728 bytes, 6 tensors)

sequential_3/dense_9/BiasAdd/ReadVariableOp f4 [20]
00000000: f851 74bf a46b 36bf 090b 8abf 13d1 02bf
00000010: dbcf 86bf 5afd 90bf 2c70 18bf 9fea febe
00000020: 9bec adbe 03f6 10bf c89b 1ebf 8575 c5be
00000030: 4580 02bf 57dd 41bf 2eba 2ebf dbe2 693f
00000040: 789b 3abf 3595 a0bf a345 29bf 502a f2be
-0.95437574 -0.71257997 -1.0784618 -0.5110027 -1.0532182 -1.1327317 -0.5954616 -0.49788377
-0.33969578 -0.56625384 -0.61956453 -0.38566223 -0.50976974 -0.7572836 -0.6825284 0.9136178
-0.72893476 -1.2545534 -0.6612188 -0.47297907

sequential_3/dense_11/BiasAdd/ReadVariableOp f4 [7]
00000000: 11c5 e7be 36a4 3bbe 0c68 173f c7ba 3fbf
00000010: 76b4 c13e 4749 cebe 07a1 fd3e
-0.45267537 -0.1832436 0.5914314 -0.74894375 0.37832993 -0.4029028 0.49536917

sequential_3/dense_10/BiasAdd/ReadVariableOp f4 [10]
00000000: 0796 b53e 51a7 e33e c875 463f 0104 593f
00000010: 809b ec3d 4517 573a acb1 9a3f 1fe7 2bbe
00000020: 3eb2 da3e c4a0 233e
0.35466024 0.4446359 0.7752347 0.84771734 0.11553097 0.00082050666 1.2085471 -0.16787384
0.42714113 0.15979296

sequential_3/dense_9/MatMul f4 [20, 42]
00000000: f027 283e 786e 853d f59d 8bbe 776f 11bf
00000010: f7f4 86be 9a2b 14bf e1df 1cbe f46f e4be
00000020: 9aa4 07be 36b8 70bf 6bd9 38bf 66e0 3abe
00000030: 4709 aebd 6e0e f53c 180c 1b3e 5125 2d3e
00000040: 1591 5e3e 76ee 6a3e 902b 10bf 18db b1bd
00000050: 0889 49bb f679 093d b08d 023e b212 dd3d
00000060: a2d6 f13d 2e0d b43c b08e 56be 4380 bcbb
00000070: 9e23 853d bb97 07bd 5d98 ab3d 9c3a ac3c
00000080: 76aa 323c ce56 293b 6e26 a13d ccfe aa3d
00000090: 1d49 8e3d 593d 7d3d 1b5c c53d 962f 8d3d
000000a0: 109f 073d 17a6 8f3d 6cfe 993e 3477 443e
000000b0: 98b5 9c3f 22e1 883e 77dd 543f 6bb3 0c3e
000000c0: 7c94 283f ba53 483e de25 af3e 9ce6 83bd
000000d0: b107 d63e d5a8 173f e104 093e 8de1 193e
000000e0: 1121 7dbe 3289 273e 7da8 a4be 0a95 3e3e
000000f0: 1a88 4f3e 66f0 e73e db4b 4c3d 6f7b 20bd
00000100: 31f9 cabd 2158 49bc 338f c2bd a6e9 49bb
00000110: 802f af3e bf39 8b3e 10e1 e83d bf20 76be
00000120: 9775 283c 61f8 29be dead 483e d6ad 863d
00000130: c6fa b73e 2ee9 c83d ff38 313d fbd1 5dbe
00000140: 1b20 2b3c b528 79be a8fc 92bb 1f73 aa3d
00000150: e024 303e 923d 8bbe b561 533f 8eb3 39bf
00000160: 2374 ef3e 3fdb 04bf 5ef1 a83e e3cb abbe
00000170: fdd0 933e 7b9f 39be 8714 603e 97ad 19be
00000180: 23d9 683d fa18 96bd ad5b febd 3cd2 dc3d
00000190: 3867 56be d112 453e 180c 2a3e d41e eabd
000001a0: 2bf0 493e 1ee5 cabd 6dbe 9c3b 4c88 153c
000001b0: 8f38 d6bd e8c0 9bbd a237 813d ec04 3fbe
000001c0: 07f4 233e f2a3 e1bd 2574 813d 7329 193d
000001d0: 05d7 86bd 581a 9bbc 3965 92bc 340c b1bd
000001e0: 390c 453e 64d8 1abe 2a00 333d cc07 0d3c
000001f0: 84e4 9bbd cb01 d7bc cc0d 923d 30f3 a43c
00000200: 3823 183f 930e 783e d951 b53e f960 42be
00000210: f26e f53e 8006 f7be cc81 003f 5414 2dbf
00000220: 9509 60be a493 823a 7944 ffbd bb9c 1f3e
00000230: 1029 c9bb d8aa fe3d 7ceb db3d 5714 9e3d
00000240: c902 3dbe 82a4 25bd b2ca 1abe 61c9 f93d
00000250: b6ca 2abe 9b26 823e 18a7 80be 6e54 e23e
00000260: 0b3a f13a 0a68 59bd 14c7 1fbe af3d b7bd
00000270: def2 c1be 8b08 2fbd d3f3 30bf 68d8 da3e
00000280: 767a 5a3e c579 3ebc 5485 19bc 6831 363e
00000290: d8c2 c0be 1e50 d43e 13ec f0be e248 2d3f
000002a0: 365a 813e 4f27 86be 0520 73bd 06d8 13bf
000002b0: f6a3 823d a984 e8be d760 843c b6ba 09bf
000002c0: 38c7 233d 1c7f 52be 5fe9 90be bdef 26be
000002d0: c6bb bebc 85dc 2ebd 9345 b13d 32d0 8b3d
000002e0: 4a61 cd3d 71ba 0d3e d96a 24be 99be 29be
000002f0: 9020 61bc e3df cbbd 6edc 663d 02b9 843d
00000300: 1e86 0f3d 6d68 593d d72a 41be 8082 69be
00000310: d3cf 41bc ed57 0cbe 1424 7c3d 519a f43d
00000320: 26e6 7a3c 2e1b 093e 426d 0bbe 2af0 08bf
00000330: 4047 cb3b 39b3 a9be db03 ac3d cfc7 0b3c
00000340: ea53 863c e9fc f03d 68ac 3a3d 68e0 8d3d
00000350: 5f50 83bf bd0e a6be 344b ccbe 3d8f 10be
00000360: 9f29 fdbe a6fc 04be 2258 40be 512f 60be
00000370: 05dc 103e 6e75 37bd 3cf1 553d bd09 0abe
00000380: cbff d0bb db3f aa3d 37af df3b bec9 883e
00000390: 178d 243e 75a0 cfbc 0487 873c 5a9d 11be
000003a0: 29d6 583d 3654 e93b 23dc 8f3d 99be 6b3c
000003b0: ed1a 3c3d 32f2 bcbd d372 c9bc 5ddf 89be
000003c0: 1fd5 4a3c 0726 81bd 3b98 17bd 4f68 0e3c
000003d0: fe87 82be 30c7 6ebe 62b0 1ebe c10b b4be
000003e0: 8a3f f4bd c06b 6bbe 3380 1ebe 260c a2bd
000003f0: 88c6 623e eec0 71be da8f 0dbe 0820 00bd
0.16421485 0.06515211 -0.2726895 -0.56810707 -0.26358768 -0.5787903 -0.15319778 -0.44616663
-0.13246384 -0.94031084 -0.72206753 -0.18249664 -0.08497863 0.029914107 0.15141332 0.16908766
0.21735032 0.22942528 -0.5631647 -0.08684367 -0.0030751843 0.033563577 0.12749362 0.107945815
0.11808516 0.02197894 -0.20952868 -0.0057525947 0.06500934 -0.033103686 0.0837867 0.02102404
0.010904899 0.0025839093 0.07868658 0.0834938 0.06947539 0.061826084 0.09636708 0.06893842
0.03311068 0.07014101 0.3007692 0.19186097 1.2242918 0.26734263 0.8315043 0.13740318
0.6585157 0.19563189 0.34208578 -0.064404696 0.41802743 0.5924199 0.13380767 0.15027447
-0.24719645 0.1636093 -0.32159796 0.18611541 0.20266762 0.45300597 0.04987703 -0.039180215
-0.09910811 -0.012289078 -0.09499969 -0.0030809431 0.34215927 0.27192494 0.11371052 -0.24035929
0.010281942 -0.16598655 0.19597575 0.06576125 0.35933512 0.098101005 0.043267246 -0.21662132
0.010444666 -0.24331935 -0.0044856854 0.08322739 0.17201567 -0.27195412 0.82570964 -0.72539604
0.46768293 -0.51897043 0.3299665 -0.3355399 0.28870383 -0.18127243 0.2188283 -0.15007626
0.056847703 -0.07328983 -0.124198295 0.107822865 -0.20937812 0.19245459 0.16606176 -0.11431661
0.19720523 -0.09906982 0.0047834427 0.009126734 -0.104600064 -0.07605153 0.06309439 -0.18654221
0.16011058 -0.11017598 0.06320981 0.037393045 -0.065839805 -0.01893346 -0.017870532 -0.08644906
0.19242944 -0.15121609 0.04370133 0.008607816 -0.07611945 -0.026245972 0.07131538 0.020135492
0.5942874 0.2422431 0.35414007 -0.18982305 0.47936207 -0.48247147 0.50198054 -0.67609143
-0.21878655 0.0009962213 -0.12464232 0.15587132 -0.0061389282 0.124349296 0.107382745 0.07718723
-0.18458094 -0.04044009 -0.15116385 0.12196613 -0.1667889 0.2542008 -0.25127482 0.4420504
0.0018404139 -0.053077735 -0.15603286 -0.08947312 -0.37880605 -0.042732757 -0.69122046 0.4274323
0.21335778 -0.011625712 -0.009370167 0.17792284 -0.37648654 0.41467375 -0.4705511 0.67689335
0.25264138 -0.26201865 -0.059356708 -0.577515 0.06378929 -0.45413712 0.016159458 -0.53800523
0.03998491 -0.20556301 -0.28303048 -0.1630239 -0.023282897 -0.042690773 0.08655848 0.068268195
0.10028322 0.13840653 -0.16056384 -0.16576613 -0.013740674 -0.099548124 0.056362562 0.064806
0.035040013 0.053078104 -0.18863998 -0.22803688 -0.011829334 -0.13705416 0.061557844 0.11943496
0.015313661 0.13389274 -0.13615897 -0.5349146 0.006203562 -0.3314455 0.08399173 0.008531525
0.016397435 0.11766989 0.045574576 0.06927568 -1.0258902 -0.3243312 -0.39901125 -0.14117141
-0.49445817 -0.12987003 -0.1878362 -0.2189305 0.14146431 -0.044789724 0.052232012 -0.13480277
-0.006378149 0.08312961 0.006826307 0.26716417 0.16069447 -0.025345067 0.016543873 -0.14220181
0.052938614 0.0071206344 0.070244096 0.014388704 0.045924116 -0.092258826 -0.024590885 -0.26928225
0.012379914 -0.06306081 -0.037010413 0.008691861 -0.2549438 -0.23318172 -0.15496972 -0.35165218
-0.119261816 -0.22990322 -0.15478592 -0.079124734 0.22146046 -0.23608753 -0.13824406 -0.031280547

sequential_3/dense_10/MatMul f4 [10, 20]
00000000: f96a 4a3f ccba 103e a9e1 993e b5e8 2b3f
00000010: b497 b63d ad28 6c3e ede5 873f da81 583d
00000020: 0799 5b3f bc1c 183c c2d1 04bf 84a1 3ebe
00000030: ac4e 4b3f 2e6f 6c3f 83b0 d53e d423 69be
00000040: 4f7e a33d 512d 0e3d 32d5 16bd 63a5 283f
00000050: 3694 8e3f e286 803f 79e8 da3f 8a2f 9d3f
00000060: ee5d 8e3e 5cd2 b43c a90d ba3f 4a3e c9bd
00000070: 4dc6 c63d e9d3 5ebe 1eb1 a43d d6b6 0c3f
00000080: bdf0 333f 2d15 4cbd 3c4a 3f3f c6af 943f
00000090: b24e 8a3f 3309 033f af5b 583e 5315 3b3f
000000a0: 67ea a8be 8d59 d7bc 23f2 bbbe 000a 4b3d
000000b0: 9528 5cbf d5f3 f43e a505 23bc 476d 5e3d
000000c0: cb90 463f 0adc 473f 9479 ff3e 9162 463f
000000d0: dc48 563c 7a6b 483e e4ae 8dbe 282e 653d
000000e0: 27f6 cf3e eddb 1c3f 7150 8e3e 4408 4a3e
000000f0: 3bb8 b73e 3ef0 a23d bee6 9ebe 2c53 1d3f
00000100: a27c a2be 88d4 17bf ab80 903e aea9 c43e
00000110: a330 26bd 0262 973f 1364 0f3d eee5 503b
00000120: 3cc0 2d3e a752 813d 9bdb 043f 0a29 933e
00000130: fc58 31bf 967f 44bf 3012 07bf ad5d 303e
00000140: 628d 633d 0388 7ebe 8255 f63e 8771 9d3d
00000150: f400 363c 6415 f13e 2c93 6dbe 1c5c 9f3f
00000160: 44bb c83e fae8 ae3f 1353 063f ee5a 6a3e
00000170: f95c b0be f352 953e 5e8a 87bd c8cb 91bd
00000180: 902c 913c 128c 983f 56e0 a03f 9a05 0fbf
00000190: d4c6 ae3e 38e8 ccbe 9156 a63e 972d 0b3f
000001a0: d114 0f3f ac10 17bf 75f9 213f 8d77 913e
000001b0: 4989 8abe 401a cb3d 37ec cabd 2cf3 713c
000001c0: eefb 153f 75fc 1dbf 4c59 0cbc 6992 a13a
000001d0: 451c 5d3f b8d1 37be a7a8 e63e 920e c9be
000001e0: 1998 343f 0b33 dabd 73da 123f ebbd 6e3e
000001f0: 6bd6 543f ba5b e23e dd4e 62be 9986 c4bd
00000200: ff41 83be 5c35 9bbf 88bf 6bbd f599 223f
00000210: ccf4 0cbf 2978 5dbe ea34 2b3f 590a 5b3e
00000220: 59dd e8bd 1f3a 683e ef98 5ebe 4dc9 40bf
00000230: 097d c7bb 736e 1f3f d885 43bf d1c8 4fbe
00000240: 9d93 853f 56f2 d33e de12 25bc ff48 c63c
00000250: dff5 7c3e 19e7 adbd 4c06 573e 9226 e23d
00000260: 2bdb 99bd 3e8a 953e 0a4f 073f 0329 233e
00000270: 720a 90bd 11c6 66be b46e e9bd 702d efbd
00000280: cdce 0ebf 2845 99bc f58b 8bbe eeb3 203e
00000290: 0388 7bbe 9219 b9be 9ce9 ac3d 11cc 18bf
000002a0: 840c 8abf 7f7d 8ebf 5e62 fabe 1812 d23e
000002b0: 491f d8be 1e05 11bf dfd6 03be 120b 593e
000002c0: 69d4 bbbe d472 0abf 3f92 6dbf ac7b e93c
000002d0: 2c93 8f3e 4d0d 413f 0951 cbbe 2ae8 1d3e
000002e0: 2094 4dbf e861 1cbe 0139 213f a721 0e3e
000002f0: 4eef 2b3f 8260 ac3e 799d bf3e 3251 8c3d
00000300: d307 053f da1c 0e3e 499d d33d 3fcf 5c3f
00000310: 09f2 df3e d570 bbbc 659f a83d 643b ee3e
0.7906948 0.14133757 0.30054978 0.6715196 0.08915654 0.23062392 1.0617043 0.05285821
0.85780376 0.009284195 -0.51882565 -0.18616301 0.7941692 0.92357147 0.4173623 -0.22767574
0.07983076 0.034711186 -0.036824413 0.6587736 1.113898 1.0041163 1.7102195 1.2280133
0.27806038 0.022072963 1.4535419 -0.09826334 0.097057916 -0.21760525 0.08041595 0.54966486
0.7028921 -0.049824882 0.7472265 1.1616142 1.0805266 0.5118591 0.21128725 0.73079413
-0.32991335 -0.026287818 -0.36708173 0.049570084 -0.85999423 0.4784228 -0.009950076 0.054303434
0.77564687 0.7807013 0.49897444 0.7749415 0.0130788945 0.19572249 -0.27672493 0.05595222
0.40617487 0.6127308 0.27795747 0.19729716 0.35882744 0.07955979 -0.31035417 0.61455035
-0.31735712 -0.5930867 0.28223166 0.38410705 -0.040573727 1.1826785 0.035007548 0.003187533
0.16967863 0.06314593 0.5189759 0.28742248 -0.69276404 -0.7675718 -0.52762127 0.17223234
0.055554755 -0.24856572 0.48112112 0.07687669 0.011108626 0.47086632 -0.23200673 1.2449985
0.39205372 1.3664849 0.5247051 0.2288625 -0.34445933 0.29164848 -0.06618188 -0.07118946
0.017721444 1.1917746 1.2568462 -0.5586792 0.3413607 -0.4002092 0.3248792 0.5436644
0.5589114 -0.59009814 0.63271266 0.28411523 -0.27057865 0.09917116 -0.09908336 0.014767449
0.5858754 -0.61713344 -0.008566212 0.0012326959 0.8637126 -0.17951095 0.45050547 -0.3926893
0.7054458 -0.10654267 0.5736458 0.23314635 0.83139676 0.44210607 -0.22100396 -0.09595985
-0.2563629 -1.2125659 -0.057555705 0.6351617 -0.5506103 -0.21627869 0.66877615 0.21390666
-0.11370344 0.22678421 -0.21738027 -0.7530716 -0.0060879034 0.6227791 -0.76376104 -0.20291449
1.0435673 0.41395825 -0.010075299 0.02420473 0.24703167 -0.08491344 0.20998496 0.11042513
-0.07512506 0.29207033 0.5285498 0.15933613 -0.07033242 -0.22536494 -0.11398068 -0.116785884
-0.557843 -0.018709734 -0.27255216 0.15693638 -0.24563603 -0.3615232 0.08442995 -0.5968638
-1.078507 -1.1132048 -0.48903173 0.4102943 -0.4221137 -0.56648433 -0.12874936 0.21195629
-0.36685494 -0.54081464 -0.9280128 0.028501354 0.2804197 0.7541092 -0.39710262 0.15420595
-0.80304146 -0.15271723 0.62977606 0.13880025 0.67162025 0.3366738 0.3742483 0.06851424
0.51965064 0.13878193 0.10332734 0.8625373 0.43739346 -0.022880951 0.08233527 0.46529686

sequential_3/dense_11/MatMul f4 [7, 10]
00000000: e172 643e 5b0d 263e 66a3 623e 7a1e 863e
00000010: 7adb e43e 2333 603f 5702 a8bf 82eb 5fbf
00000020: 9e55 4b3f 1060 3e3f bacf beba 1cba d23e
00000030: 52cd acbe 925b 1ebf 011a db3e afa8 65bd
00000040: cc0b f33e d2b4 503f 7bab 81bf 0a45 8d3e
00000050: 9657 4dbf b250 1fbe f58c 5f3d 85fb 343f
00000060: 7884 82bf 786b e2bf 7a75 333f 709a 193c
00000070: 041a 473f 3334 843d 5649 db3e 58cb cabf
00000080: 6a83 5c3f 7731 46bf 7bdd 533f ecad 2ebe
00000090: 2177 91bf 12a5 e93c f366 c6bf bf96 ccbe
000000a0: fc8a 0bc0 7045 bcbf a1a0 2e3e f2aa b73f
000000b0: 6a86 cc3e 7c5f 913e 2f3c a1be fefa f9bf
000000c0: 50da 6e3e a7d5 d0be deac 943f 9af7 7a3e
000000d0: 1d03 a8bf bb2c ca3d d868 90bf fd16 113f
000000e0: e391 c2be ff78 d2be 862c 813e 971f 48bf
000000f0: 8d9b a0bf ba1c 063e 4482 113f 73c5 f7bf
00000100: a9b1 51be f213 0c3e c0f8 613f 3fa7 8fbf
00000110: f5c7 d2be 1edf c8bf
0.22309448 0.16216032 0.22132644 0.26195127 0.44698697 0.8757803 -1.3125714 -0.8746873
0.79427516 0.7436533 -0.0014557757 0.41157615 -0.33750397 -0.61858475 0.42793277 -0.056069072
0.47469938 0.8152591 -1.0130457 0.27591735 -0.8021177 -0.15558127 0.054577786 0.7069629
-1.0196676 -1.7689047 0.7010113 0.0093752 0.7777407 0.06455269 0.42829388 -1.5843306
0.8613802 -0.7741923 0.8275983 -0.17058533 -1.136448 0.028521094 -1.5500168 -0.3995876
-2.180358 -1.4708691 0.17053463 1.4349043 0.399463 0.2839316 -0.3149123 -1.9529722
0.23325467 -0.40788004 1.1615255 0.24508515 -1.312595 0.09871813 -1.1281996 0.566757
-0.38001928 -0.41107938 0.2522928 -0.781732 -1.254747 0.13096896 0.56839395 -1.9357132
-0.20477928 0.13679484 0.8827019 -1.1222914 -0.4116818 -1.569309
