model/keypoint_classifier/keypoint_classifier.tflite (tflite, 6764 bytes, 6 tensors)

sequential/dense/BiasAdd/ReadVariableOp f4 [20]
0.056286976 -0.6254974 -0.61573106 -0.71681786 -0.6718074 -0.73062474 -0.7067052 -0.8219739
-0.7312517 -0.54683244 -0.82413006 -0.07903461 -0.2508839 -0.58117354 -0.9659304 0.6625847
-0.97633725 -0.78140014 0.19003801 -0.80232364
00000000: 2c8d 663d 9920 20bf 8da0 1dbf 6081 37bf
00000010: 92fb 2bbf 390a 3bbf a2ea 34bf e26c 52bf
00000020: 5033 3bbf 36fd 0bbf 30fa 52bf e6dc a1bd
00000030: db73 80be cac7 14bf 3747 77bf 279f 293f
00000040: 3df1 79bf d709 48bf 5399 423e 1565 4dbf

sequential/dense_2/BiasAdd/ReadVariableOp f4 [9]
-0.6566531 -0.75428253 0.84332484 0.23461299 0.45573488 -0.7695788 0.3446131 0.3740679
0.4024554
00000000: 6b1a 28bf a918 41bf 23e4 573f 633e 703e
00000010: 1556 e93e 1e03 45bf 2171 b03e d485 bf3e
00000020: a20e ce3e

sequential/dense_1/BiasAdd/ReadVariableOp f4 [10]
0.25408065 -0.09880473 0.32497922 0.67770046 0.8472847 0.13147613 1.0030627 -0.23236334
-1.1154305 0.057992026
00000000: dc16 823e 225a cabd ad63 a63e c77d 2d3f
00000010: a6e7 583f aea1 063e 5c64 803f a8f0 6dbe
00000020: 6dc6 8ebf 0c89 6d3d

sequential/dense/MatMul f4 [20, 42]
-0.07601677 0.14162222 0.8124003 0.09364121 0.42474535 0.049162567 0.35430208 -0.13830751
0.47072166 -0.03629989 -0.1655358 0.09792012 -0.33815095 0.15317574 -0.0068865637 0.16035661
0.083737366 0.12711643 -0.1236523 0.21012057 -0.19009076 0.29082865 0.048027605 0.22352389
0.33902177 0.16572668 -0.3758501 0.22122785 -0.416204 0.082812294 -0.27164263 -0.17838895
-0.38398865 -0.67204016 -0.34687576 0.36384317 -0.3525851 0.263758 -0.36075073 -0.022100696
-0.535289 -0.15517028 0.044748873 0.11443558 0.51505303 -0.6113792 0.49554786 -0.23753463
0.6229121 -0.113898255 0.3654055 -0.34830406 0.13796827 0.23181082 0.04348584 0.035274036
-0.20672093 0.1534316 -0.31433848 0.14379935 0.11549972 0.13556464 0.11497616 -0.03917028
-0.05586998 0.096841484 -0.16580817 0.12706582 0.20389554 0.09160092 0.24295078 -0.20384668
0.026839621 -0.022021577 -0.10934721 0.0032768734 0.33703128 -0.056232948 0.3582558 -0.2060212
0.24120419 -0.08777352 0.027902493 -0.105925485 0.0071695745 0.2647422 0.064465135 0.75722855
0.08457828 0.37674907 -0.011533716 0.39513814 -0.038016163 0.48244947 0.16401874 0.005455954
0.032748528 -0.04309386 -0.028758554 -0.0011875121 -0.04485473 0.011121516 0.24382518 -0.007823742
0.04746407 0.057727624 -0.10692051 -0.018551461 -0.00963935 0.06137947 0.24543096 0.020221198
0.015800504 -0.068989664 -0.20879677 -0.36233976 -0.45612136 -0.8677799 0.20439091 -0.060626764
0.00866189 -0.059122834 -0.22605087 -0.36163303 -0.48686916 -0.8908029 -0.14012809 -0.07888895
-0.21671999 -0.9562615 -0.23408866 -0.49763906 -0.20037244 -0.59400284 -0.16306464 -1.2328874
-0.43358666 -0.12471992 -0.086596705 0.05354093 0.05281605 0.14538692 0.090202965 0.11883444
-0.24247847 -0.05199337 0.02712605 0.054114964 0.026087595 0.16826427 -0.007698179 0.20044078
-0.16855223 0.0358359 0.1764165 0.08637064 0.019511968 0.045247715 -0.04220038 -0.052796096
0.18309489 0.20767552 0.27375463 0.16027252 0.16950257 0.14642961 0.04679924 0.08358329
-0.07426277 -0.10568792 0.70010024 -0.3408344 0.534724 -0.21367972 0.22195914 -0.09556118
0.106737785 0.084054224 0.6431092 -0.15595244 0.11692835 0.06299476 -0.21813065 0.05186631
-0.3266448 0.060318455 0.74323314 0.08668446 0.1063994 -0.03283532 -0.27741987 0.055682838
-0.34916115 0.0694869 0.7978416 -0.033425625 0.22187749 0.055977345 -0.17994775 -0.031379312
-0.2367089 -0.007536502 0.7884114 -0.021112131 0.42145178 0.09366691 0.064502195 0.00022659323
-0.06257608 -0.03242623 0.05846685 0.26892138 -0.2123293 0.047211815 -0.008255766 0.11161188
-0.007291361 0.3029017 0.08799567 0.23375908 -0.0943488 -0.6073512 -0.072114184 -0.6351573
-0.05976406 -0.44672275 0.007866641 -0.24432273 0.037052564 -0.64082587 -0.053012002 0.1903566
0.036799368 0.49638322 0.17222762 0.41035897 0.04136697 -0.650517 -0.05686081 0.18251951
-0.0104362015 0.24501383 0.006250839 0.14748007 0.08837766 -0.6366898 -0.031138599 0.095188566
-0.0035574646 0.2119536 -0.00931228 0.113629304 0.12838736 -0.29798868 0.84402704 0.34559515
00000000: aeae 9bbd 6a05 113e 77f9 4f3f f6c6 bf3d
00000010: 3978 d93e b05e 493d 1567 b53e 7ca0 0dbe
00000020: 6e02 f13e 32af 14bd 3782 29be 588a c83d
00000030: 1f22 adbe 1ada 1c3e afa8 e1bb 8634 243e
00000040: 7f7e ab3d cf2a 023e 6b3d fdbd d929 573e
00000050: 27a7 42be 7ee7 943e 98b8 443d 72e3 643e
00000060: 4394 ad3e 41b4 293e 6d6f c0be 8e89 623e
00000070: b118 d5be 7e99 a93d be14 8bbe 98ab 36be
00000080: 299a c4be d30a 2cbf b399 b1be a749 ba3e
00000090: 0986 b4be 4a0b 873e 52b4 b8be 850c b5bc
000000a0: b308 09bf f5e4 1ebe 984a 373d 345d ea3d
000000b0: 84da 033f 5983 1cbf 73b8 fd3e 473c 73be
000000c0: 2b77 1f3f 7d43 e9bd 6e16 bb3e e954 b2be
000000d0: 8e47 0d3e d15f 6d3e 351e 323d 827b 103d
000000e0: a7ae 53be 2c1d 1d3e f9f0 a0be 2340 133e
000000f0: 1e8b ec3d 75d1 0a3e 9f78 eb3d 0471 20bd
00000100: ecd7 64bd d454 c63d 9ec9 29be 8b1d 023e
00000110: fec9 503e 4399 bb3d 17c8 783e 2fbd 50be
00000120: c4de db3c 9866 b4bc 6ef1 dfbd d0c0 563b
00000130: 5d8f ac3e 8554 66bd 4e6d b73e 39f7 52be
00000140: 3bfe 763e 9ac2 b3bd c593 e43c 76ef d8bd
00000150: c0ee ea3b 4a8c 873e 4c06 843d bbd9 413f
00000160: 6137 ad3d 41e5 c03e e9f7 3cbc 8c4f ca3e
00000170: d6b6 1bbd 9e03 f73e 87f4 273e dcc7 b23b
00000180: 5223 063d 3083 30bd 0f97 ebbc 4ba6 9bba
00000190: 98b9 37bd 0537 363c 4fad 793e 272f 00bc
000001a0: af69 423d cd73 6c3d 24f9 dabd 3cf9 97bc
000001b0: 5dee 1dbc 0a69 7b3d 4152 7b3e eda6 a53c
000001c0: 0f70 813c 744a 8dbd d2ce 55be 9984 b9be
000001d0: bd88 e9be d326 5ebf da4b 513e c553 78bd
000001e0: 9aea 0d3c c92a 72bd e179 67be f727 b9be
000001f0: ea46 f9be a90b 64bf bd7d 0fbe 8890 a1bd
00000200: d8eb 5dbe 8ecd 74bf f0b4 6fbe 8cca febe
00000210: 6f2e 4dbe 9210 18bf 6bfa 26be 41cf 9dbf
00000220: 12ff ddbe 286d ffbd 9d59 b1bd bc4d 5b3d
00000230: a455 583d 4fe0 143e 55bc b83d 795f f33d
00000240: 474c 78be 00f7 54bd 7337 de3c a7a7 5d3d
00000250: a7b5 d53c 784d 2c3e 0241 fcbb 5940 4d3e
00000260: f598 2cbe aac8 123d 87a6 343e 17e3 b03d
00000270: 90d7 9f3c ab55 393d 4eda 2cbd b840 58bd
00000280: 3a7d 3b3e e4a8 543e 9129 8c3e 7b1e 243e
00000290: 1592 2d3e a5f1 153e 8fb0 3f3d b72d ab3d
000002a0: 1417 98bd e872 d8bd c539 333f d981 aebe
000002b0: ace3 083f dbce 5abe 4249 633e 94b5 c3bd
000002c0: 5799 da3d 9f24 ac3d cea2 243f ffb1 1fbe
000002d0: 2178 ef3d 6603 813d a45d 5fbe c571 543d
000002e0: fd3d a7be 7c10 773d 8744 3e3f 9f87 b13d
000002f0: eee7 d93d 547e 06bd fa09 8ebe b013 643d
00000300: 40c5 b2be 264f 8e3d 593f 4c3f 4fe9 08bd
00000310: da33 633e 8048 653d 3944 38be 9887 00bd
00000320: d163 72be c3f4 f6bb 54d5 493f 59f3 acbc
00000330: 87c8 d73e 70d4 bf3d ba19 843d a899 6d39
00000340: e327 80bd 5ed1 04bd f07a 6f3d 10b0 893e
00000350: da6c 59be 2d61 413d 3143 07bc c594 e43d
00000360: 5fec eebb ee15 9b3e 1337 b43d 8a5e 6f3e
00000370: f239 c1bd 5e7b 1bbf 9ab0 93bd ab99 22bf
00000380: 29cb 74bd d8b8 e4be 15e3 003c bd2f 7abe
00000390: 6ec4 173d 2a0d 24bf 1d23 59bd d7ec 423e
000003a0: efba 163d f125 fe3e 705c 303e 921a d23e
000003b0: 6970 293d 4888 26bf e1e6 68bd 65e6 3a3e
000003c0: 9afc 2abc e8e4 7a3e d7d3 cc3b 0405 173e
000003d0: 59ff b43d 1afe 22bf 6016 ffbc 39f2 c23d
000003e0: 5a24 69bb 5d0a 593e 8992 18bc 7bb6 e83d
000003f0: fa77 033e f991 98be 2812 583f d9f1 b03e

sequential/dense_1/MatMul f4 [10, 20]
-0.3618497 -0.321988 0.3268365 0.2502197 -0.54167485 0.90473866 -0.5496855 -0.04185688
0.27580896 -0.15381613 -0.070738964 -0.2545568 -0.71310395 0.22509995 0.50452447 0.23724882
0.9139944 0.6162873 -0.52704626 0.2092238 0.44162565 1.3250892 0.7642062 0.90028524
0.58383125 0.19397634 1.0333967 0.067399696 0.10952184 0.41283914 0.6278488 -0.08280141
-0.18099871 0.40741733 0.7369316 0.3599299 0.86082816 0.18982674 0.12393293 0.3182311
0.19574694 0.051798705 0.86676395 -0.05985109 0.20989265 -0.14365244 0.4448633 -0.21047562
0.81087935 0.25027674 0.08565182 0.6839129 1.1900374 -0.04119551 -0.4095952 0.109170884
-0.3697345 0.8079971 0.424099 -0.38847262 0.3853426 -0.073442936 -0.3711684 0.9561415
0.19885698 0.22163235 0.003003398 0.33392307 0.5028162 0.108870365 0.99971884 0.37716737
-0.5687885 0.8479869 -0.29758114 0.98773897 -0.36112234 0.86467314 0.18355358 0.203851
-0.42505246 0.41183132 0.024641417 0.04378867 -0.01890994 0.46259943 0.18023567 0.29262212
0.7089016 -0.45466688 -0.4210626 -0.022338219 -0.41203228 -0.56329787 -0.3010402 -0.11874864
-0.094016895 0.4807104 0.30316156 0.39233914 1.0363114 0.9625144 0.071839176 0.48790434
1.6502742 0.041821662 0.26543525 -0.06475132 -0.0044706245 0.42582926 0.5814947 1.2940392
0.32351026 1.1381123 1.0198781 0.678091 0.17687444 -0.028324818 1.2322184 0.044389512
0.08156686 0.34245148 -0.23588882 0.70509964 0.15077712 1.2755536 1.1045234 0.9862326
0.24288318 -0.44395462 0.45914882 -0.0453108 1.6106114 0.30367836 0.113216914 1.0404967
-0.3409776 0.19631243 -0.13668491 1.0016165 0.01839071 -1.0110364 -0.00081480795 -0.4247128
0.64449596 -0.07846602 -0.025623683 -0.1080323 0.12229196 0.011485639 0.0815106 -0.022371024
-0.5222017 0.07690311 0.3077182 0.034879744 -0.23484053 0.023932809 -0.033181872 1.0818404
-0.062907174 0.40986514 -0.0656554 -0.22561896 0.103584014 -0.10393427 -0.06425519 0.8490948
0.015238728 -0.18636502 0.18032445 0.6904208 -0.3548808 -0.12336297 0.19112632 0.019228548
0.13318932 0.034621034 -0.11676045 -0.47828776 0.011468544 0.09391721 0.97330314 0.0684064
-0.31372637 -0.019598544 0.8339183 0.28844914 0.7126376 0.62399226 0.9172028 0.066473566
-0.036029052 0.9587255 -0.55380994 0.19158521 0.6448032 0.5934554 0.075737126 0.2151299
00000000: 5d44 b9be 9cdb a4be 1d57 a73e cc1c 803e
00000010: 34ab 0abf f49c 673f 30b8 0cbf 1f72 2bbd
00000020: d536 8d3e fa81 1dbe 97df 90bd 4555 82be
00000030: fb8d 36bf 9a80 663e 8428 013f 5bf1 723e
00000040: 89fb 693f 01c5 1d3f 81ec 06bf c43e 563e
00000050: c21c e23e 869c a93f 04a3 433f 1879 663f
00000060: f775 153f bca1 463e 5846 843f da08 8a3d
00000070: fd4c e03d a75f d33e b3ba 203f c993 a9bd
00000080: ba57 39be 0199 d03e 8da7 3c3f bb48 b83e
00000090: 3c5f 5c3f f161 423e 8cd0 fd3d 30ef a23e
000000a0: e371 483e e12a 543d 3ee4 5d3f 6b26 75bd
000000b0: 19ee 563e a019 13be 1fc5 e33e ec86 57be
000000c0: ca95 4f3f 4624 803e 396a af3d ea14 2f3f
000000d0: 2553 983f a0bc 28bd 76b6 d1be fc94 df3d
000000e0: d74d bdbe e6d8 4e3f 8123 d93e e2e5 c6be
000000f0: a04b c53e 4069 96bd c909 bebe b0c5 743f
00000100: 2aa1 4b3e 97f3 623e a8d4 443b f7f7 aa3e
00000110: 90b8 003f 6df7 de3d 93ed 7f3f 151c c13e
00000120: 209c 11bf ab15 593f 8e5c 98be 76dc 7c3f
00000130: 07e5 b8be 385b 5d3f 78f5 3b3e 51be 503e
00000140: 7aa0 d9be 8edb d23e ccdc c93c c05b 333d
00000150: 05e9 9abc d5d9 ec3e b38f 383e 91d2 953e
00000160: 937a 353f 19ca e8be 8495 d7be a4fe b6bc
00000170: e5f5 d2be 4a34 10bf f121 9abe 7d32 f3bd
00000180: ee8b c0bd ac1f f63e fe37 9b3e ade0 c83e
00000190: daa5 843f 5867 763f 6b20 933d 99ce f93e
000001a0: 2f3c d33f 314d 2b3d 21e7 873e 579c 84bd
000001b0: 517e 92bb 4b06 da3e d6dc 143f 14a3 a53f
000001c0: 23a3 a53e aaad 913f 5e8b 823f 5f97 2d3f
000001d0: 931e 353e 7309 e8bc 55b9 9d3f c7d1 353d
000001e0: 870c a73d cd55 af3e d78c 71be 6981 343f
000001f0: 5165 1a3e 5745 a33f 0661 8d3f bd79 7c3f
00000200: 5eb6 783e 054e e3be 8e15 eb3e d197 39bd
00000210: 8428 ce3f bb7b 9b3e 45de e73d ff2e 853f
00000220: 9e94 aebe 2006 493e 21f7 0bbe f834 803f
00000230: 1da8 963c a469 81bf d698 55ba f573 d9be
00000240: b0fd 243f cbb2 a0bd c2e8 d1bc 0a40 ddbd
00000250: 3574 fa3d 432e 3c3c 08ef a63d 7043 b7bc
00000260: 03af 05bf 617f 9d3d 3d8d 9d3e 10de 0e3d
00000270: 097a 70be bd0e c43c b7e9 07bd bf79 8a3f
00000280: 7ad5 80bd d8d9 d13e 5776 86bd a808 67be
00000290: db23 d43d 7edb d4bd 3a98 83bd 475e 593f
000002a0: dcab 793c 79d6 3ebe f9a6 383e 6bbf 303f
000002b0: f0b2 b5be baa5 fcbd 9eb6 433e 3085 9d3c
000002c0: c862 083e c9ce 0d3d 1a20 efbd 22e2 f4be
000002d0: 8fe6 3b3c ab57 c03d 652a 793f a818 8c3d
000002e0: bea0 a0be 208d a0bc ab7b 553f 9baf 933e
000002f0: 6b6f 363f f5bd 1f3f cdcd 6a3f 4b23 883d
00000300: 3393 13bd 096f 753f 7dc6 0dbf ea2e 443e
00000310: d311 253f b1ec 173f 111c 9b3d 034b 5c3e

sequential/dense_2/MatMul f4 [9, 10]
-0.026315987 -0.3412745 0.5732591 0.6833107 -0.6307045 0.22255042 -0.20900594 -1.2538891
-1.0142962 0.87440985 0.6933699 0.58477396 0.016901303 0.31006047 0.425949 0.3383942
-0.32356197 0.9330883 1.0787877 -0.35143754 0.14372768 -1.232229 -0.37334985 0.35303524
0.1772237 0.7462343 0.41460767 -0.8834308 -1.1463546 -1.4639633 0.79617107 -0.26162466
-0.070559956 0.501547 0.43107465 -1.2827867 -1.6050109 0.1526971 -1.2862774 0.8595501
-0.32786828 -2.1471825 0.4447354 0.2853544 0.6092208 -1.3339833 -0.0045206575 -1.400869
-1.5555266 0.12701717 -0.7589131 0.870218 -1.7882619 0.39124072 -1.7566664 0.24197902
0.14314689 0.56663936 0.2522203 -0.069053575 0.6745515 -0.04235741 -0.9490671 -1.7182602
-0.10661798 0.29020327 0.5723641 -0.35162163 0.446387 -0.370299 -0.14822198 0.61490875
0.51120114 -1.1921586 -0.3949969 0.64909923 -1.4243793 0.42339268 1.0074108 -0.5908883
-0.15040492 -1.5561737 -0.29790214 -0.012966387 -0.23310325 -0.96731335 0.72176164 0.2379224
-0.48629892 -1.3873471
00000000: a094 d7bc 88bb aebe 1cc1 123f 73ed 2e3f
00000010: da75 21bf 42e4 633e a705 56be 707f a0bf
00000020: 75d4 81bf 53d9 5f3f b180 313f bfb3 153f
00000030: 9a74 8a3c 3fc0 9e3e fd15 da3e 0142 ad3e
00000040: eaa9 a5be e0de 6e3f b715 8a3f 9fef b3be
00000050: 592d 133e aeb9 9dbf b627 bfbe 09c1 b43e
00000060: 217a 353e 3609 3f3f 7547 d43e 8528 62bf
00000070: bfbb 92bf 2663 bbbf ded1 4b3f abf3 85be
00000080: bd81 90bd 6265 003f d1b5 dc3e 5b32 a4bf
00000090: ff70 cdbf a15c 1c3e bda4 a4bf 7a0b 5c3f
000000a0: 5ade a7be 706b 09c0 5cb4 e33e f919 923e
000000b0: e5f5 1b3f f7bf aabf 0622 94bb ad4f b3bf
000000c0: 7f1b c7bf ca10 023e 2148 42bf 9bc6 5e3f
000000d0: c4e5 e4bf b450 c83e 72da e0bf 59c9 773e
000000e0: 1995 123e 470f 113f 0523 813e f66b 8dbd
000000f0: 68af 2c3f f77e 2dbd 10f6 72bf f3ef dbbf
00000100: 875a dabd 8695 943e 7486 123f c007 b4be
00000110: d68c e43e d597 bdbe 81c7 17be a96a 1d3f
00000120: 14de 023f a798 98bf 093d cabe 5e2b 263f
00000130: 1052 b6bf edc6 d83e d6f2 803f 7544 17bf
00000140: bf03 1abe b330 c7bf a186 98be f870 54bc
00000150: 9eb2 6ebe d9a1 77bf 5fc5 383f eea1 733e
00000160: 2cfc f8be 9794 b1bf
